saved_model/case14/checkpoint_rnn.pt (torch, 238103 bytes, 26 tensors)

encoder.LSTM_layers.0.weight_ih_l0 f4 [192, 68]
0	0xbbb9e305	-0.005672815
1	0x3e2800cc	0.16406554
2	0xbea42aba	-0.32063848
3	0x3d58830d	0.052859355
4	0x3e0e3ec1	0.13891126
5	0x3e6940ba	0.22778597
6	0x3e5a3569	0.21309437
7	0x3c3c86b9	0.01150673
8	0xbe3660ba	-0.17810336
9	0x3d84fd84	0.06493667
10	0xbf011b9f	-0.5043277
11	0xbd8c4f23	-0.06851032
12	0xbe30728d	-0.17231198
13	0x3e37f2b9	0.17963685
14	0xbc78d7bb	-0.015188153
15	0xbdc5478c	-0.09632787
16	0x3f0ba432	0.5454742
17	0x3d835ae4	0.064138204
18	0x3e7a6420	0.24452257
19	0x3e04a1fe	0.1295242
20	0xbd6e5367	-0.058185007
21	0xbf172b7e	-0.5905074
22	0x3d9e3c9c	0.07726404
23	0xbe396168	-0.18103564
24	0xbe63ab95	-0.22233422
25	0xbf599c15	-0.8500379
26	0x3e58165f	0.21102284
27	0xbf190416	-0.5977186
28	0x3ec0b0d5	0.37634912
29	0xbcba2309	-0.022721784
30	0x3ec948a4	0.39313233
31	0x3e39b875	0.18136771
32	0x3e677117	0.22601734
33	0xbe9f7fe5	-0.31152263
34	0x3e2131fa	0.15741721
35	0xbdc5783a	-0.09642072
36	0xbd5eebe0	-0.054424167
37	0xbec062a7	-0.37575266
38	0xbedc3833	-0.43011627
39	0xbf5516cc	-0.8323791
40	0xbd2fbbbf	-0.042903658
41	0xbe8eb3d2	-0.27871567
42	0xbe3a181c	-0.1817326
43	0xbe0623a0	-0.13099527
44	0xbeb1e07c	-0.3474158
45	0x3dac9270	0.08426368
46	0xbe2313d9	-0.1592554
47	0x3ef91c02	0.4865418
48	0xbe08e9c2	-0.13370422
49	0xbd6dba59	-0.058039043
50	0xbc8dfb02	-0.017331604
51	0xbe2d408e	-0.16919157
52	0x3f0b902f	0.5451688
53	0xbb333e42	-0.002735034
54	0x3ed6d297	0.41957542
55	0xbec2b4be	-0.3802852
56	0xbf1f665e	-0.62265575
57	0x3e7e9846	0.24862775
58	0xbd75db7c	-0.06002377
59	0xbd4a1554	-0.049336746
60	0x3eb174a5	0.34659305
61	0xbf181d85	-0.59420043
62	0x3e9b1d0c	0.30295599
63	0x3d0f24e0	0.034947276
64	0xbec49228	-0.38392758
65	0x3b2354ac	0.0024922295
66	0xbe874e1a	-0.26426774
67	0xbe913ce0	-0.28366756
68	0xbb9b5d17	-0.004741322
69	0xbdfadf1a	-0.122495845
70	0xbd489b0d	-0.048975993
71	0xbf1710d6	-0.59010065
72	0xbec2836d	-0.37990895
73	0xbf0b3085	-0.5437091
74	0xbe1f3b6d	-0.15550013
75	0xbd848ad6	-0.06471793
76	0xbc9704e5	-0.018434951
77	0xbe533344	-0.20625025
78	0xbf8853ce	-1.0650575
79	0xbc818f4f	-0.015815405
80	0xbef513b7	-0.47866604
81	0x3f115d1b	0.5678269
82	0xbe97b51a	-0.29630357
83	0xbf149ea4	-0.58054566
84	0xbf187852	-0.59558594
85	0xbf44cd48	-0.76875734
86	0xbf2dec72	-0.6793891
87	0x3ea61f1d	0.32445613
88	0xbeae99b6	-0.34101647
89	0xbf23a8b9	-0.63929325
90	0xbe93dbd4	-0.28878653
91	0x3eeba622	0.46025187
92	0x3da11877	0.078659944
93	0xbe920a66	-0.28523558
94	0x3e9c154b	0.30484995
95	0xbf53fc22	-0.828066
96	0xbdad04be	-0.0844817
97	0xbe77ef8a	-0.2421247
98	0x3f81c7dc	1.0139117
99	0xbdf8169c	-0.121136874
100	0x3ed9d866	0.4254791
101	0x3c819a73	0.015820717
102	0xbeec31db	-0.46131787
103	0xbeb244d4	-0.34818137
104	0x3d7c71fd	0.061632145
105	0xbdb404f5	-0.08790008
106	0x3d8d4511	0.06897939
107	0x3ddffab9	0.109364934
108	0x3e25b9b6	0.16184124
109	0x3eafee45	0.34361473
110	0x3e25f026	0.1620489
111	0x3d5f55f1	0.05452532
112	0x3ba8b6fe	0.0051487675
113	0xbe9e237a	-0.3088644
114	0xbd18105e	-0.037124984
115	0x3b9c0384	0.0047611613
116	0x3c96d61c	0.018412642
117	0x3f1f6a5a	0.62271655
118	0x3eb94dd3	0.36192188
119	0x3f047439	0.5173984
120	0xbc2a62f4	-0.010399569
121	0xbf14ead6	-0.5817083
122	0x3d95f440	0.073219776
123	0xbddb1e80	-0.10699177
124	0x3e9bbcde	0.30417532
125	0x3e8a4518	0.2700584
126	0xbebe3ad9	-0.37154272
127	0xbed6ea01	-0.41975406
128	0x3eae7ad0	0.34078074
129	0xbd8fb1c9	-0.07016332
130	0x3e2907d0	0.16506886
131	0xbe71a22b	-0.23597018
132	0xbf15b59f	-0.58480257
133	0xbe3e47bd	-0.18582053
134	0xbe27f4c8	-0.1640197
135	0x3d53397a	0.051568486
136	0xbe3d361e	-0.18477675
137	0xbbf753db	-0.007547838
138	0xbdf1e284	-0.118107826
139	0xbe0607b7	-0.1308888
140	0xbdb97bbd	-0.09056804
141	0x3e971d4e	0.29514545
142	0x3ecec5da	0.40385324
143	0xbe8b3531	-0.2718902
144	0xbcd1fe02	-0.025633816
145	0xbe96d249	-0.2945731
146	0x3e9a28f0	0.30109358
147	0xbebbccb6	-0.3667962
148	0xbef2c0d7	-0.4741275
149	0xbf2cfc1d	-0.67572194
150	0x3d9112b0	0.070836425
151	0x3f6547f9	0.89562947
152	0xbf227511	-0.6345988
153	0x3def0dab	0.11672529
154	0xbeec92ec	-0.46205842
155	0xbeba05f4	-0.36332667
156	0xbdc1d71a	-0.094648555
157	0x3ecdf121	0.4022303
158	0x3e2c7f09	0.16845335
159	0xbe173203	-0.14765172
160	0xbed85df5	-0.42259184
161	0x3e5ca13a	0.21545878
162	0xbea6e885	-0.32599273
163	0x3f2d9079	0.6779857
164	0x3e1ba510	0.15199685
165	0xbf596f0c	-0.8493507
166	0xbec43374	-0.38320506
167	0xbd252fc1	-0.040328745
168	0x3f0bc1e8	0.5459275
169	0x3f17328a	0.5906149
170	0x3cc5cd21	0.024145665
171	0xbe5623b4	-0.20912057
172	0x3f94e4c1	1.163231
173	0xbe2c4f52	-0.16827133
174	0x3d2497a9	0.040183697
175	0xbf204011	-0.6259776
176	0x3deaa268	0.11456758
177	0xbef27465	-0.47354427
178	0xbe8941b4	-0.2680794
179	0xbea1abae	-0.31576294
180	0x3e8cbeac	0.2748922
181	0x3d1270e6	0.0357522
182	0xbed23bce	-0.41061252
183	0xbeee8e55	-0.46592966
184	0xbd964d98	-0.073390186
185	0x3ebb985c	0.36639678
186	0xbf001d9f	-0.500452
187	0x3e6fce92	0.23418644
188	0xbee67f1e	-0.45018858
189	0x3eb01825	0.3439342
190	0x3ecb5d45	0.39719597
191	0x3e59998e	0.21249983
192	0xbf3b5886	-0.7318195
193	0x3d263c9e	0.040585153
194	0x3ca11851	0.019664915
195	0x3df0844c	0.117439836
196	0xbeb3bc85	-0.35104766
197	0x3e8ad4fc	0.2711562
198	0x3e9c6243	0.30543718
199	0xbf67eb23	-0.90593165
200	0xbe98bbe0	-0.29830837
201	0xbe8deef5	-0.27721372
202	0x3f32fc93	0.6991665
203	0x3ebc6895	0.3679854
204	0x3e7ca11b	0.24670832
205	0x3e43b302	0.19111255
206	0xbed1e338	-0.40993667
207	0x3e1cd7fd	0.15316768
208	0x3e97ebc9	0.29672077
209	0x3d663ede	0.0562123
210	0x3d88c91a	0.06678982
211	0xbca4a819	-0.020099686
212	0x3ebfe7ed	0.37481633
213	0x3f54b083	0.83081836
214	0x3ef0c3d6	0.4702441
215	0x3d168d21	0.036755685
216	0x3e3e3314	0.18574172
217	0x3cc6bd69	0.02426024
218	0x3e1a351d	0.15059324
219	0x3f394f07	0.7238621
220	0x3eab4cf7	0.33457157
221	0x3eed9d7b	0.4640921
222	0xbf14e818	-0.58166647
223	0xbf3936eb	-0.72349423
224	0xbd2e4354	-0.042544678
225	0xbd6ceb9e	-0.05784189
226	0xbc457e4a	-0.012054035
227	0x3e2dddb9	0.16979112
228	0x3d4ac441	0.04950357
229	0x3cb3cbbc	0.021947734
230	0x3c8fcdb7	0.017554147
231	0xbea5a0a2	-0.32349116
232	0x3c93496e	0.01797935
233	0xbe079cf7	-0.13243471
234	0xbf61fc2c	-0.8827541
235	0x3e173b0b	0.14768617
236	0xbe8fc4bd	-0.28079787
237	0x3deb2a9a	0.11482735
238	0xbf3ed66c	-0.7454593
239	0x3d92559a	0.071452335
240	0x3f253568	0.64534616
241	0xbd7a5471	-0.061115686
242	0xbeab0ea5	-0.3340961
243	0xbde687e7	-0.1125639
244	0x3e418cd0	0.18901372
245	0xbf0466b4	-0.5171921
246	0xbedd3a26	-0.43208426
247	0x3e3adf86	0.1824933
248	0x3ef21af3	0.47286186
249	0x3ecb2bdb	0.39681897
250	0xbd4cae0e	-0.04997068
251	0xbf563d2f	-0.8368711
252	0xbe5edd2f	-0.21764062
253	0xbf10749c	-0.5642793
254	0xbf142459	-0.5786796
255	0xbe64c812	-0.22341946

encoder.LSTM_layers.0.weight_hh_l0 f4 [192, 48]
0	0x3ee56411	0.44802907
1	0xbf1de0da	-0.6167122
2	0xbe915308	-0.2838366
3	0xbd1ae1d1	-0.03781301
4	0x3ef618a2	0.48065668
5	0xbf217ea5	-0.6308387
6	0x3ebade12	0.3649755
7	0xbd40db6e	-0.047084264
8	0x3ef5285c	0.47882354
9	0x3e498e0d	0.19683094
10	0x3f0acc58	0.54218054
11	0x3c4531da	0.012035811
12	0x3eefb7c2	0.46819884
13	0xbccef3ff	-0.02526283
14	0xbe4cf941	-0.20016958
15	0x3dd2c1aa	0.10290845
16	0x3f0ceb85	0.55046874
17	0xbec9a1ce	-0.3938126
18	0xbe352257	-0.17688881
19	0x3f252ffc	0.64526343
20	0xbe00cfa7	-0.12579213
21	0x3f1fad21	0.6237355
22	0x3eb4a074	0.35278666
23	0xbda677e1	-0.08128334
24	0x3f20fe9b	0.628885
25	0xbefe9814	-0.497254
26	0x3f8a5490	1.0807056
27	0xbc9fcc7a	-0.019506682
28	0x3e2592c8	0.16169274
29	0x3eab0e8a	0.3340953
30	0xbde059d2	-0.10954632
31	0xbe8100d7	-0.25195953
32	0xbe2605a5	-0.1621309
33	0xbe8034f9	-0.25040415
34	0xbe0979aa	-0.13425317
35	0xbe816061	-0.25268844
36	0xbdbaaf7f	-0.091155045
37	0x3ec84019	0.39111403
38	0x3e27d732	0.16390684
39	0x3ed3cb01	0.41365817
40	0xbf9d45b5	-1.2286898
41	0xbf33f8af	-0.70301336
42	0xbe9a5673	-0.3014408
43	0x3f2f1dd7	0.68404907
44	0x3d69ce13	0.057081293
45	0xbcc5de55	-0.024153868
46	0x3f0981f2	0.53713906
47	0x3ee7e20c	0.45289648
48	0xbdba20da	-0.09088297
49	0xbf3110c5	-0.69166213
50	0x3f8a4bd3	1.080439
51	0xc0041a32	-2.0640988
52	0x3e9f81f6	0.3115384
53	0x3ef4a5e1	0.47782806
54	0x3f58736c	0.8455112
55	0xbfcb8ddc	-1.5902667
56	0x3f9888f9	1.1916801
57	0xbff4f83b	-1.9138254
58	0xbdd75596	-0.10514371
59	0x3edecb25	0.43514362
60	0x3cf24ed1	0.029578598
61	0xbe85e169	-0.26148537
62	0xbe53275e	-0.20620486
63	0xbe90d21d	-0.28285304
64	0x3fddbc2d	1.7323052
65	0x3e300bfb	0.1719207
66	0x4053e911	3.3111002
67	0x3fbf15c2	1.4928515
68	0x3d8e7175	0.06955234
69	0xbf8c9979	-1.0984336
70	0xbf47a2f5	-0.7798303
71	0xbe5cc0fd	-0.21557994
72	0x3f2a51ae	0.66530883
73	0xbed94613	-0.42436275
74	0x3f8a88ff	1.0823058
75	0x3f53c6af	0.8272504
76	0xbfa774d3	-1.3082527
77	0xbf052365	-0.5200713
78	0x3eaf5be8	0.34249806
79	0xbd2e5423	-0.042560708
80	0xbf86afab	-1.052236
81	0xc000985f	-2.0093
82	0xbf29360a	-0.6609808
83	0xbee273ee	-0.44229072
84	0xbe10581c	-0.14096111
85	0xbdf6b442	-0.120461
86	0x3f3f7b04	0.7479708
87	0x3c9acda0	0.018896878
88	0x3f50b0f6	0.8152002
89	0x3fae9861	1.3640252
90	0xbd7528a4	-0.05985321
91	0xbd8e7b83	-0.06957152
92	0xbf2cc4e4	-0.6748793
93	0xbc24ff1c	-0.010070588
94	0x3e0e25f7	0.1388167
95	0x3f3c68ff	0.7359771
96	0x3e4a2b75	0.1974314
97	0xbf99e724	-1.2023664
98	0xbe1c2858	-0.15249765
99	0xbf81949b	-1.0123476
100	0x3e6d64da	0.23183003
101	0xbf81b410	-1.0133076
102	0x3ea8f327	0.3299801
103	0xbe37c1f2	-0.17945078
104	0xbe024c63	-0.12724452
105	0x3b9b76e6	0.0047443984
106	0x3ebe7c85	0.37204376
107	0xbe89e192	-0.2692991
108	0x3f7bd19d	0.9836672
109	0xbef6196e	-0.48066276
110	0xbd38ba00	-0.04509926
111	0x3ee4a27b	0.44655213
112	0x3f07942f	0.52960485
113	0x3e83866c	0.25688493
114	0xbea04840	-0.31305122
115	0x3f637b74	0.8886025
116	0xbf14e629	-0.58163697
117	0xbf6e4809	-0.93078667
118	0xbd43cf2d	-0.047805
119	0xbee2b52f	-0.44278857
120	0x3f07e52d	0.5308407
121	0x3d1a38a2	0.037651666
122	0xbf94023a	-1.156318
123	0x3eb021be	0.34400743
124	0x3ec069bf	0.37580678
125	0xbeadea98	-0.33968043
126	0xbe9e21a3	-0.30885038
127	0xbe2ca6dd	-0.16860528
128	0xbec93b1b	-0.39302906
129	0xbf7c7596	-0.9861692
130	0x3ee0f757	0.43938705
131	0xbf97fac0	-1.1873398
132	0x3d0b971d	0.03407966
133	0x3e054c17	0.13017307
134	0x3f793834	0.97351384
135	0xbef8ba23	-0.4857951
136	0xbf14e5c6	-0.58163106
137	0x3f2c3d1d	0.6728075
138	0x3dfa8e64	0.1223419
139	0xbf507174	-0.81423116
140	0xbf04836e	-0.51763046
141	0xbdc0ceb2	-0.09414424
142	0x3f3492a6	0.7053627
143	0x3f196365	0.5991729
144	0x3f6720db	0.9028451
145	0x3f2bcaf5	0.6710656
146	0xc03397b5	-2.8061345
147	0x3f98b3b4	1.1929841
148	0x3ef6d897	0.4821212
149	0x3db5ca99	0.08876533
150	0xbd6b9f40	-0.05752492
151	0x3f161ec1	0.58640677
152	0xbfd3d2fb	-1.6548761
153	0x3e83af50	0.2571969
154	0xbe5ea489	-0.21742453
155	0xbea34d4b	-0.31894907
156	0xbf80b95b	-1.0056566
157	0x3ec441f9	0.38331583
158	0x3d8b059f	0.067881815
159	0x3f36970c	0.7132423
160	0xbf85d018	-1.045413
161	0x3f62d87e	0.8861159
162	0x3d5d36e2	0.05400742
163	0x3e4d5d2e	0.20055076
164	0xbe8fbc4d	-0.2807335
165	0xbf52a3e1	-0.8228131
166	0x3e955771	0.29168275
167	0xbe6199b6	-0.22031292
168	0x3e1b8915	0.15189011
169	0x3eff5d1a	0.49875718
170	0xbf9dfe0c	-1.2343154
171	0x3ee68225	0.45021167
172	0x3fae4866	1.3615844
173	0x3ea0ea4d	0.31428757
174	0x3e58fc60	0.21190023
175	0xbe85449b	-0.26028904
176	0x3f1c927d	0.61161023
177	0xbef29dba	-0.4738596
178	0x3ea602a9	0.32423905
179	0x3ebbfe89	0.36717632
180	0x3e8d760b	0.27629122
181	0xbf3643c5	-0.7119716
182	0xbfb37bb4	-1.4022126
183	0x3ea2a52e	0.31766647
184	0x3d1f1e75	0.038847405
185	0xbfdd835e	-1.7305715
186	0x3f18abb8	0.5963702
187	0xbf1ad121	-0.60475355
188	0x3f4ed71a	0.8079697
189	0x3e0c15aa	0.13680139
190	0xbf9b2fc0	-1.2123947
191	0x3f3b0e2d	0.73068506
192	0xbeb16546	-0.34647578
193	0xbf65b08a	-0.897225
194	0x3efc1747	0.4923651
195	0xbeadac79	-0.3392065
196	0x4006a744	2.103959
197	0xbeeea511	-0.4661031
198	0xbd07a837	-0.033119407
199	0xbe4535c6	-0.19258794
200	0x400c5a70	2.1930199
201	0x3f21784e	0.63074195
202	0xbfd23c08	-1.642457
203	0x3f413912	0.7547771
204	0xc019a2ce	-2.4005618
205	0xbf85427e	-1.0410917
206	0x3f2f8ec7	0.68577236
207	0xbf7bd8ca	-0.9837767
208	0x3fa9da6d	1.3269783
209	0x3db377a9	0.08763058
210	0xbfc0db9c	-1.506702
211	0xbfd9563f	-1.6979445
212	0xbeaa2d11	-0.33237508
213	0x3f21206d	0.629401
214	0x3ec07ed1	0.37596753
215	0x400e753e	2.225906
216	0x402baf49	2.6825736
217	0xbf0288e2	-0.50990117
218	0xbf08d7a5	-0.5345405
219	0x3f42d24f	0.76102155
220	0x3e40f5ce	0.18843767
221	0xbefb8386	-0.49123782
222	0x3d8d73fd	0.06906889
223	0xbf051ac9	-0.51993996
224	0x3f4150e5	0.7551406
225	0xbf0acd3c	-0.5421941
226	0x3f1d46c1	0.61436087
227	0xbf0ea12b	-0.5571467
228	0xbf8c671d	-1.0968968
229	0xbf55e1dc	-0.8354776
230	0x3f880f93	1.0629753
231	0x3cc34639	0.023837196
232	0x3f206912	0.62660325
233	0xbdd36db0	-0.103236556
234	0xbeaafffb	-0.33398423
235	0x3f345bdf	0.70452684
236	0xc049b597	-3.1517084
237	0x3dfa0625	0.12208203
238	0xbf6bf12c	-0.92164874
239	0xbeebc242	-0.46046644
240	0x3cf64acf	0.030064968
241	0xbe3e1527	-0.18562756
242	0x3f773b24	0.96574616
243	0xbf5d09aa	-0.8634287
244	0x3f0a0658	0.5391593
245	0xbee60664	-0.4492675
246	0xbf431f38	-0.7621951
247	0x3e2e0d26	0.16997203
248	0x3e3f7d58	0.18700159
249	0xbda0bea7	-0.07848864
250	0x3f15b27f	0.5847549
251	0x3ddff500	0.10935402
252	0xbf351295	-0.7073148
253	0x3f2478e5	0.6424697
254	0x3d1ddd0f	0.038540896
255	0x3cf18b83	0.02948547

encoder.LSTM_layers.0.bias_ih_l0 f4 [192]
0	0x3d384e5e	0.04499661
1	0x3d7edfa8	0.062225014
2	0xbbd99da7	-0.006641108
3	0xbe5de3e7	-0.21668969
4	0xbd4c7a0e	-0.049921088
5	0x3cf9a503	0.030474192
6	0xbd0634b3	-0.0327651
7	0xbc96f24b	-0.018426081
8	0x3e8091af	0.25111148
9	0xbe31ea27	-0.17374478
10	0xbc6f6bd4	-0.014613111
11	0x3e1e8a89	0.15482534
12	0xbeced340	-0.40395546
13	0x3e1a7594	0.15083915
14	0x3c7300a8	0.014831699
15	0xbdd99c3b	-0.10625502
16	0x3c008811	0.007844941
17	0xbe013caf	-0.12620805
18	0xbb5949e8	-0.0033155624
19	0xbd8e33f6	-0.069435045
20	0xbd0fb9a1	-0.03508914
21	0xbe6d21fa	-0.23157492
22	0x3e28ff18	0.1650356
23	0x3e2aa057	0.16662727
24	0xbaff9a7f	-0.0019501
25	0xbca47436	-0.020074945
26	0xbe9dbf5d	-0.3081006
27	0xbc5aa6f1	-0.013345466
28	0x3d7a2332	0.06106872
29	0xbe1ceb4f	-0.15324138
30	0xbe82ee8a	-0.25572616
31	0x3d8673af	0.06565034
32	0x3e248907	0.16067897
33	0xbdf4e503	-0.11957743
34	0xbd99909b	-0.074982844
35	0x3e0e4b24	0.13895851
36	0xbe239240	-0.15973759
37	0xbdd958ea	-0.10612662
38	0x3ddf0d87	0.10891252
39	0xbe952903	-0.29132852
40	0xbd4016eb	-0.046896856
41	0xbd266ad7	-0.040629234
42	0x3bfd939a	0.0077385427
43	0xbd59d7ec	-0.053184435
44	0xbe9c542e	-0.30532974
45	0x3e1b1ceb	0.1514775
46	0xbe788a0e	-0.24271414
47	0xbe756fbe	-0.23968408
48	0x3e64bac8	0.22336876
49	0x3cdbed5c	0.02684658
50	0x3e6c3f48	0.23071015
51	0x3e00b961	0.12570716
52	0x3d0ce965	0.03440227
53	0xbdda5c22	-0.10662104
54	0xbe8c0334	-0.27346194
55	0x3d2f9a0e	0.042871527
56	0x3e2cc8e3	0.16873507
57	0xbe302f97	-0.17205654
58	0x3d9f7d7a	0.07787605
59	0x3dad75a6	0.08469705
60	0x3d6874d6	0.05675205
61	0xbe2ec181	-0.17066003
62	0x3da91e79	0.08257765
63	0xbd5bf080	-0.053696156
64	0xbcea1a73	-0.028577065
65	0xbd22f120	-0.039780736
66	0x3ecb05a8	0.39652753
67	0x3e134cb4	0.14384729
68	0x3e795d08	0.24351895
69	0x3deedab3	0.11662807
70	0xbe054f52	-0.1301854
71	0xbd58b3e0	-0.052905917
72	0x3ea221b3	0.31666335
73	0xbdf1d525	-0.11808232
74	0xbe2f8aa7	-0.17142735
75	0xbd6e6ce7	-0.058209326
76	0x3d7dd908	0.061974555
77	0x3d0ba131	0.03408927
78	0x3e42e1f9	0.19031514
79	0x3ec263ac	0.3796667
80	0xbe2f0246	-0.17090711
81	0x3ce69909	0.028149145
82	0xbda14720	-0.07874894
83	0x3d9b89da	0.075946525
84	0x3e65fabe	0.22458932
85	0xbdfa0561	-0.12208057
86	0x3de73d26	0.1129096
87	0x3ce98bb2	0.028508995
88	0xbdee192b	-0.11625894
89	0x3e83ca1b	0.25740132
90	0x3e001767	0.12508927
91	0xbdf8f6f4	-0.121564776
92	0x3e25b0fd	0.16180797
93	0xbd583c22	-0.052791722
94	0x3b695f3b	0.003560974
95	0xbdeed5a3	-0.11661842
96	0x3ceb4efd	0.028724188
97	0xbe584913	-0.21121626
98	0x3e522050	0.20520139
99	0xbe784d09	-0.24248137
100	0xbe1e703c	-0.15472502
101	0x3dcf81d4	0.101321846
102	0x3ab4b5dc	0.0013787108
103	0x3e487ea0	0.19579554
104	0xbd3672c4	-0.044543043
105	0x3e37ba27	0.17942105
106	0x3e0810b3	0.1328762
107	0xbd98fb69	-0.07469828
108	0x3d3b84e9	0.04578105
109	0xbe289f86	-0.16467103
110	0xbc25ab10	-0.010111585
111	0x3c98801a	0.018615771
112	0x3e098a34	0.13431627
113	0x3e19ca2d	0.1501853
114	0xbe8f2316	-0.27956456
115	0x3e57611c	0.21033138
116	0x3e35e62b	0.17763583
117	0xbdf1d70c	-0.11808595
118	0xbc53fae8	-0.012938239
119	0xbe24cf4b	-0.16094701
120	0xbe043304	-0.12910086
121	0xbda250e5	-0.07925586
122	0x3e86284f	0.26202628
123	0xbd8e9389	-0.06961734
124	0x3d8a23fb	0.06745144
125	0xbe3d5819	-0.18490638
126	0xbe238b4f	-0.15971111
127	0xbe868d58	-0.26279712
128	0xbe144a04	-0.1448136
129	0xbe1d030c	-0.15333194
130	0xbe5f05b2	-0.21779516
131	0xbe41f751	-0.18942
132	0x3e79399e	0.24338385
133	0xbe99043f	-0.29886052
134	0xbd8034f8	-0.06260103
135	0x3ddec3f8	0.10877222
136	0xbe1d4163	-0.15356974
137	0x3c726ca2	0.014796408
138	0xbe1bf407	-0.15229808
139	0x3e527f02	0.20556262
140	0x3d04df24	0.032439366
141	0xbda3cb9a	-0.07997818
142	0xbdd1b0ea	-0.10238822
143	0x3df84fca	0.121245936
144	0x3bd42486	0.0064740805
145	0x3e27dae8	0.163921
146	0x3e3442ea	0.1760365
147	0xbc83bb07	-0.016080393
148	0xbcefa29d	-0.029252345
149	0x3e0be3e0	0.13661146
150	0x3c8c5d65	0.017134378
151	0xbd567dbc	-0.052366003
152	0x3e324329	0.17408432
153	0x3e2aa5d9	0.16664828
154	0x3d3b4e79	0.045729134
155	0xbe211c7b	-0.1573352
156	0xbe3644f3	-0.1779974
157	0x3da11302	0.078649536
158	0xbd5562c1	-0.052096132
159	0x3ddd4112	0.10803427
160	0x3e0ed000	0.13946533
161	0xbe465250	-0.19367337
162	0xbcb8fbed	-0.022581065
163	0x3c061027	0.008182562
164	0x3e5a6c43	0.21330361
165	0x3c5e196d	0.013555867
166	0xbc29abfa	-0.010355944
167	0x3c4a2bdf	0.012339561
168	0x3c954195	0.018219749
169	0x3e7ec3d0	0.24879384
170	0xbe2ed6e4	-0.17074162
171	0x3e8e4ec5	0.2779447
172	0x3d75f3fb	0.06004713
173	0x3e09a529	0.1344191
174	0x3e07e752	0.13271835
175	0x3d4daa56	0.050211273
176	0xbbfa562c	-0.007639667
177	0x3de4d8fd	0.111742
178	0x3e2e05c4	0.16994387
179	0x3e881074	0.26575053
180	0xbd53d1d3	-0.051713776
181	0xbe534e49	-0.20635332
182	0x3e55db8d	0.20884533
183	0xbe9f9cb1	-0.31174234
184	0xbd354ea8	-0.044264466
185	0x3cfe5417	0.031045957
186	0x3dd2890e	0.10280047
187	0x3d5035ff	0.050832745
188	0x3dacab85	0.08431152
189	0x3de60179	0.1123075
190	0xbe4c1041	-0.19928075
191	0xbe1acdd5	-0.15117581

encoder.LSTM_layers.0.bias_hh_l0 f4 [192]
0	0xbcf3fc16	-0.02978329
1	0xbe4f2205	-0.20227821
2	0x3c6a7985	0.014311199
3	0xbe7deefe	-0.247982
4	0xbe02aa8c	-0.12760371
5	0xbdfdbc5b	-0.123894416
6	0xbd838fa2	-0.0642388
7	0xbe08db77	-0.13364969
8	0x3d4d41ea	0.05011169
9	0xbe770b82	-0.24125484
10	0x3ab2008c	0.0013580485
11	0x3df9065a	0.121594146
12	0xbe73ffac	-0.23828
13	0x3df3f327	0.11911612
14	0xbe0d2a10	-0.13785577
15	0xbe26d97f	-0.16293906
16	0x3c1a9fe1	0.009437532
17	0x3de85cd7	0.11345833
18	0x3d0f5623	0.034994256
19	0x3ddd4e81	0.10805989
20	0xbd166123	-0.03671373
21	0xbe1dacf4	-0.15398008
22	0x3e2f11e2	0.17096666
23	0x3defcc26	0.1170886
24	0x3e025ede	0.12731501
25	0x3e6d297a	0.23160353
26	0xbe94c6f6	-0.29058045
27	0x3ddf3454	0.10898653
28	0xbd06c3ab	-0.032901447
29	0xbc8a5b5d	-0.016889269
30	0x3cf71099	0.030159282
31	0x3cb8de37	0.022566898
32	0x3e09fccb	0.13475339
33	0x3dfec046	0.12439017
34	0x3ddcda56	0.10783832
35	0xba347848	-0.00068843784
36	0xbdd5d374	-0.10440722
37	0x3cb8b541	0.022547366
38	0xbd9a5d03	-0.07537272
39	0xbda1d39d	-0.0790169
40	0xbc96408a	-0.018341321
41	0xbd5118ec	-0.051049158
42	0xbe765f33	-0.24059753
43	0xbdb5f816	-0.08885209
44	0xbdafab0a	-0.08577545
45	0x3e5b91bf	0.21442316
46	0xbc893755	-0.016750017
47	0x3dfa183a	0.12211652
48	0x3d4f0006	0.05053713
49	0x3cddf750	0.027095467
50	0x3e871510	0.26383257
51	0x3dfddcad	0.12395606
52	0xbb920635	-0.0044563063
53	0xbe8d4801	-0.27593997
54	0xbe9bdd43	-0.30442247
55	0x3dc510e8	0.09622365
56	0xbddc4bdc	-0.107566565
57	0x3ddb06a3	0.10694625
58	0xbc2a34e4	-0.010388587
59	0x3e4dea99	0.20109023
60	0xbe3f59f1	-0.18686654
61	0x3c6c1bea	0.014410952
62	0xbd939414	-0.07205978
63	0x3e1de221	0.15418293
64	0xbdd469ca	-0.1037174
65	0x3e215ba6	0.15757617
66	0x3e2eb943	0.17062859
67	0x3e6906b7	0.22756468
68	0x3e1ef171	0.1552179
69	0x3e5c323d	0.2150354
70	0xbde032cd	-0.109471895
71	0x3dda42b5	0.106572546
72	0x3df6c5f7	0.120494775
73	0xbdcbee3d	-0.0995755
74	0x3e41297f	0.18863486
75	0x3d7cf8b9	0.061760638
76	0x3be9d406	0.007135871
77	0x3d6c6015	0.05770882
78	0x3e42e0ed	0.19031115
79	0x3e562877	0.20913874
80	0x3db792e2	0.089635625
81	0x3c77df6c	0.0151289515
82	0xbe4ea9a3	-0.20181899
83	0xbcf4a7de	-0.029865202
84	0x3e4f3005	0.20233162
85	0x3da1c6ab	0.07899221
86	0xbc05364d	-0.008130622
87	0xbe90e42f	-0.2829909
88	0x3d555e59	0.05209193
89	0xbdf772e3	-0.1208246
90	0x3e9fb847	0.3119528
91	0xbe1a6bc5	-0.15080173
92	0x3da1661f	0.07880806
93	0x3d17d886	0.037071727
94	0xbe244def	-0.16045354
95	0x3d753b85	0.059871215
96	0xbda8a4ee	-0.08234583
97	0x3deed224	0.11661175
98	0x3e495a7f	0.19663428
99	0x3dfc7288	0.123265326
100	0xbdf4d97f	-0.119555466
101	0x3c688e6a	0.01419411
102	0xbe740b2b	-0.23832385
103	0xbd93efde	-0.072234854
104	0x3c20c4d5	0.009812553
105	0x3d99fa23	0.07518413
106	0x3d453668	0.04814759
107	0xbe3199f1	-0.1734388
108	0xbd737ad6	-0.059443317
109	0x3da4648c	0.0802699
110	0xbd9627fb	-0.073318444
111	0x3bd66c11	0.0065436442
112	0xbdb3926c	-0.08768162
113	0xbcf3be42	-0.029753808
114	0xbe911f80	-0.28344345
115	0x3ea868fc	0.32892597
116	0x3caaeddc	0.020865373
117	0x3e26b1dd	0.16278787
118	0xbdee1b6f	-0.11626326
119	0x3d61bc60	0.05511129
120	0xbdb4c48b	-0.0882655
121	0xbe2de0c6	-0.16980276
122	0x3e637441	0.22212316
123	0xbe22cbd5	-0.15898068
124	0x3e3bba6d	0.18332835
125	0x3d1eca01	0.038766865
126	0x3e259e34	0.16173631
127	0xbe2e5157	-0.17023216
128	0xbd35e448	-0.04440716
129	0xbe2d0d3c	-0.1689958
130	0xbd5f8f91	-0.054580275
131	0x3ca67c6b	0.020322999
132	0xbd1ee362	-0.038791068
133	0xbe686bb4	-0.22697335
134	0xbe66cab5	-0.22538264
135	0x3dbc8443	0.092049144
136	0xbe467673	-0.19381122
137	0x3d9eb193	0.07748713
138	0xbe215df4	-0.15758497
139	0xbe0bc5a1	-0.13649608
140	0x3d076906	0.033059143
141	0xbe9a7bea	-0.30172664
142	0x3d91e7ea	0.07124312
143	0x3d06fbaa	0.03295485
144	0xbe168555	-0.146993
145	0xbdfbf697	-0.12302893
146	0x3d79ee4b	0.06101827
147	0xbda31eea	-0.07964881
148	0xbe52ecc9	-0.20598139
149	0x3dd35549	0.10319001
150	0xbe87ea30	-0.26545858
151	0x3d4ebff7	0.05047604
152	0x3e7d320f	0.24726127
153	0x3e3e7d5e	0.18602511
154	0xbd162bb0	-0.036662757
155	0xbbee3d69	-0.0072705043
156	0xbe853efc	-0.26024616
157	0xbd88c007	-0.06677251
158	0xbe89c225	-0.26905933
159	0x3d9b7065	0.07589797
160	0x3de07bf8	0.10961145
161	0xbb04e103	-0.002027572
162	0x3e8b264c	0.27177656
163	0x3c1419e6	0.009039378
164	0x3c939e26	0.018019747
165	0x3ddba739	0.107252546
166	0xbd30daba	-0.043177344
167	0x3e801ce7	0.2502205
168	0x3d98f7a4	0.07469109
169	0xbd9b93f7	-0.075965814
170	0x3cc59f4e	0.024123814
171	0xbcb95196	-0.022621911
172	0xbdaf112e	-0.08548199
173	0x3e32c66c	0.17458504
174	0x3dcd7aab	0.10033163
175	0x3eb9e30b	0.36306033
176	0xbd47d388	-0.048785716
177	0x3d5ca118	0.05386457
178	0xbe24e08a	-0.1610128
179	0x3d3ff1d8	0.0468615
180	0x3c3bdeb6	0.011466673
181	0xbd9aa4d7	-0.07550972
182	0x3d89bf7e	0.06725977
183	0xbe59a706	-0.2125512
184	0x3db4e660	0.08833003
185	0xbdd772ad	-0.105199195
186	0x3e095334	0.13410646
187	0xbb82f411	-0.00399638
188	0x3d75bef7	0.05999657
189	0xbd8459a3	-0.06462409
190	0xbde0d877	-0.109787874
191	0x3daeac1e	0.085289225

encoder.LSTM_layers.1.weight_ih_l0 f4 [116, 48]
0	0xbe69d4d8	-0.228351
1	0x402f970d	2.7435944
2	0x3c9826a4	0.018573113
3	0xbda15aa1	-0.07878614
4	0xbf08b1b5	-0.5339616
5	0xbe4d32ab	-0.2003886
6	0x3de4484c	0.11146602
7	0x3e99d4fe	0.30045313
8	0xbe9b5db6	-0.30344933
9	0x3ee0d08e	0.43909115
10	0xbf52bc56	-0.8231863
11	0x3c2e7ef8	0.010650389
12	0x3e972953	0.29523715
13	0xbe4b5e95	-0.19860299
14	0x3f820a59	1.0159408
15	0xbeba7375	-0.36416212
16	0x3ef7c43e	0.48391908
17	0x3efe474f	0.4966378
18	0x3f660beb	0.89861935
19	0xbf79e357	-0.9761252
20	0x3e368734	0.17825013
21	0xbda5ff7d	-0.08105371
22	0xbf13d252	-0.577428
23	0xbee829fa	-0.45344526
24	0x3e07a66a	0.13247076
25	0x3e4717ed	0.1944272
26	0xbf1b6296	-0.60697305
27	0xbe95cd9a	-0.29258424
28	0x3e167b70	0.14695525
29	0x3f0a23b8	0.5396075
30	0x3ee75b12	0.4518667
31	0xbeb8f2e3	-0.36122808
32	0xbeadb454	-0.33926642
33	0x3f0e5e0c	0.55612254
34	0xbed3907a	-0.41321164
35	0x3f60ff4c	0.8788955
36	0x3ecfcbef	0.40585276
37	0x3c555523	0.013020786
38	0x3da6d953	0.0814692
39	0xbeb679d3	-0.3563982
40	0xbf2498de	-0.64295757
41	0x3e5d3194	0.21600944
42	0x3f028929	0.5099054
43	0x3e32c1df	0.17456768
44	0xbe77bf63	-0.24194102
45	0x3e67d4e6	0.22639808
46	0x3f416d46	0.75557363
47	0x3dba7c85	0.091057815
48	0xbe151db6	-0.14562115
49	0x3dc65ac9	0.09685285
50	0x3e99b550	0.30021143
51	0xbe317fa9	-0.17333855
52	0xbea465fd	-0.3210906
53	0xbf12c7e0	-0.57336235
54	0x3f87e6db	1.0617326
55	0xbef76f51	-0.48327115
56	0xbef0d03e	-0.47033876
57	0xbdb3b217	-0.08774202
58	0x3dda36ef	0.10655009
59	0x3f6026d9	0.87559277
60	0x3e7577a9	0.23971428
61	0x3eb402cc	0.35158384
62	0xbf1f7a92	-0.622964
63	0x3f40fdba	0.75387156
64	0xbe8edfa9	-0.27905014
65	0xbe817ef1	-0.2529216
66	0x3eb9cf20	0.36290836
67	0x3e8b0372	0.27151066
68	0x3e0d1ba2	0.13780072
69	0x3e8987be	0.26861376
70	0x3d3ce47f	0.04611635
71	0xbd734b75	-0.059398133
72	0x3f05e679	0.523048
73	0x3e8cd163	0.275035
74	0xbedf92b2	-0.43666607
75	0x3e6958b2	0.22787741
76	0xbe936b58	-0.28792834
77	0x3e5d042f	0.21583627
78	0x3e3e1d78	0.18565929
79	0xbdde870d	-0.10865603
80	0x3eb58654	0.35454047
81	0x3eb575f7	0.35441563
82	0xbd09c3bd	-0.033633936
83	0xbe9adbcf	-0.30245826
84	0x3dda46b1	0.106580146
85	0x3e573607	0.21016704
86	0xbd5c33f7	-0.053760495
87	0x3cecb717	0.028895898
88	0xbed674f1	-0.41886094
89	0xbe1731fe	-0.14765164
90	0x3f12e6a8	0.57383204
91	0x3ed29f01	0.41136935
92	0x3f093ef6	0.53611696
93	0x3e05203b	0.13000576
94	0xbee89669	-0.45427254
95	0x3e6ba88e	0.23013517
96	0x3f4540fc	0.77052283
97	0xbe3f3644	-0.18673044
98	0xbe0a8a86	-0.13529405
99	0xbd27c562	-0.040959723
100	0xbece2e5b	-0.4026974
101	0xbf69e737	-0.9136843
102	0xbe0eada8	-0.13933432
103	0xbeb48525	-0.3525783
104	0xbe1f0652	-0.15529755
105	0xbede7a6c	-0.43452775
106	0x3d78fbb9	0.060786936
107	0xbd7d62d6	-0.061861835
108	0x3e78539d	0.24250646
109	0x3c10f03f	0.008846342
110	0x3e5a7b1b	0.21336024
111	0x3ef64b02	0.481041
112	0xbf17d835	-0.5931428
113	0x3f04ea22	0.5191976
114	0xbdef3eae	-0.11681877
115	0xbde97eff	-0.11401176
116	0xbf322456	-0.69586694
117	0x3e223874	0.15841848
118	0x3d820d55	0.06350199
119	0x3e84074e	0.25786823
120	0xbed16f4d	-0.40905228
121	0x3f4176e1	0.7557202
122	0xbe4d4757	-0.20046745
123	0xbe928c60	-0.28622723
124	0x3f22bbb0	0.6356764
125	0x3e0f23dc	0.13978523
126	0xbe5ab6c1	-0.21358778
127	0x3e539bbe	0.2066488
128	0xbf0f10d8	-0.55885077
129	0x3def477f	0.11683559
130	0x3d6ff5f3	0.058584165
131	0xbe52504d	-0.20538445
132	0x3e77e055	0.2420667
133	0xbe301742	-0.17196372
134	0x3ee99656	0.4562251
135	0xbe413256	-0.18866858
136	0xbd91e5cc	-0.071239084
137	0xbf1b7b85	-0.6073535
138	0xbe895c40	-0.26828194
139	0x3dec127c	0.11526963
140	0x3e0fdbcf	0.14048694
141	0x3e7e01c8	0.24805367
142	0x3d72d5ad	0.05928581
143	0x3e522d42	0.20525077
144	0x3f037a8c	0.51358867
145	0xbdd784c1	-0.10523368
146	0xbe70ec93	-0.23527746
147	0xbf4347a4	-0.7628119
148	0x3f25c2f9	0.6475063
149	0xbee44dec	-0.445907
150	0xbe90a663	-0.28251943
151	0xbf120c23	-0.5704977
152	0x3ef8fa32	0.48628384
153	0xbea375cd	-0.31925812
154	0x3ee78dbd	0.45225325
155	0xbdb69672	-0.08915414
156	0xbac1a287	-0.0014773168
157	0xbdaa4b8a	-0.08315189
158	0x3ee89ddb	0.45432934
159	0xbeaae664	-0.333789
160	0x3e121b1e	0.14268157
161	0x3da91af6	0.082570955
162	0x3f45aa60	0.77213097
163	0x3ec68c84	0.3877908
164	0x3a0dc67d	0.00054083
165	0x3df36f2c	0.11886439
166	0xbe90980b	-0.28241
167	0xbe1fcaca	-0.15604702
168	0x3ef9e0d0	0.4880433
169	0x3e6d3c48	0.23167527
170	0xbd49724c	-0.049181268
171	0x3ea1d576	0.3160817
172	0xbde8a1e9	-0.11359007
173	0x3f2c65cd	0.67342836
174	0xbd83b489	-0.06430919
175	0x3f28eac8	0.6598325
176	0x3e4e4f74	0.20147496
177	0xbcbf0759	-0.023318933
178	0x3c66eaaf	0.014094039
179	0x3e8affef	0.27148387
180	0x3dbb8eae	0.09158073
181	0x3f2daf95	0.6784604
182	0xbc85cde7	-0.016333533
183	0xbf00f0a2	-0.50367177
184	0xbd7cc550	-0.06171161
185	0x3e1f9098	0.15582502
186	0x3cd59d3d	0.026075954
187	0xbe8364de	-0.25662893
188	0xbd5a8237	-0.05334684
189	0xbea0b9fc	-0.31391895
190	0x3f1bb075	0.6081613
191	0x3d8319c0	0.06401396
192	0x3f030f70	0.5119543
193	0xbea1648e	-0.3152203
194	0xbe3578f9	-0.17721929
195	0x3e2f9174	0.1714533
196	0xbe9c42de	-0.30519766
197	0x3d47e357	0.048800793
198	0xbd4dc40e	-0.0502358
199	0x3ef997ea	0.48748714
200	0xbf269836	-0.65076005
201	0x3f1de56e	0.61678207
202	0x3f01650a	0.505448
203	0xbd044446	-0.032291673
204	0xbe12166a	-0.14266363
205	0x3edf9971	0.43671754
206	0x3e8ca27a	0.2746771
207	0x3e96a8e2	0.29425722
208	0xbf2d684e	-0.6773728
209	0x3f46074a	0.7735487
210	0xbd7d4c50	-0.061840355
211	0x3e45aca2	0.19304135
212	0xbf209909	-0.62733513
213	0x3daa9dc4	0.08330873
214	0x3e2266fd	0.158596
215	0x3e2e2b60	0.17008734
216	0x3e834638	0.2563951
217	0x3e999e07	0.30003378
218	0x3ce2cc35	0.027685264
219	0xbe32d126	-0.17462596
220	0x3eddc82b	0.4331678
221	0x3e8ad245	0.27113548
222	0x3ddb4ff0	0.10708606
223	0x3ede5bca	0.43429404
224	0xbf2c8476	-0.6738962
225	0xbe8ce5d8	-0.27519107
226	0x3f5a5ead	0.85300714
227	0xbe4f215f	-0.20227574
228	0xbee0dd83	-0.43919
229	0xbee815b1	-0.4532905
230	0x3ea32de8	0.3187096
231	0xbe7e62c3	-0.24842362
232	0x3ebe5faa	0.3718236
233	0xbec7d320	-0.39028263
234	0x3c395659	0.011312091
235	0xbda4f3a9	-0.08054287
236	0x3f62a725	0.8853629
237	0xbecd1cc1	-0.40061
238	0xbed47f52	-0.41503388
239	0x3f017301	0.5056611
240	0x3f1b173f	0.60582346
241	0xbdba85aa	-0.09107526
242	0xbeaa5bd7	-0.33273193
243	0x3f1029ff	0.5631408
244	0xbf1a5b26	-0.6029533
245	0x3ed57e23	0.41697797
246	0xbeb08d1f	-0.34482667
247	0x3f481861	0.781622
248	0xbedcc983	-0.4312249
249	0x3fbd6888	1.4797525
250	0x3f85a8d0	1.0442142
251	0xbe94b065	-0.29040828
252	0x3e1a1526	0.1504713
253	0xbdf7d654	-0.12101427
254	0xbd23cdac	-0.039991066
255	0x3f71146d	0.9417179

encoder.LSTM_layers.1.weight_hh_l0 f4 [116, 29]
0	0xbf616f8f	-0.8806085
1	0x3df12727	0.11775046
2	0xbb4d571d	-0.003133244
3	0x3e2073b8	0.15669143
4	0x3e30ef58	0.17278802
5	0xbfc5e8e5	-1.5461699
6	0xbf6f35af	-0.9344129
7	0x3f8f8af8	1.1214285
8	0xbec8bf7a	-0.39208585
9	0xbfab9409	-1.3404552
10	0xbeec8439	-0.46194628
11	0x3e428de5	0.18999441
12	0xbec2ed1a	-0.3807152
13	0xbf2f0e9c	-0.6838167
14	0xbf8154d0	-1.0104008
15	0xbf1daad5	-0.61588794
16	0x3f1f5dd4	0.62252545
17	0x3e086581	0.1331997
18	0xbf39e818	-0.7261977
19	0xbe3cfa85	-0.1845494
20	0xbe71922c	-0.23590916
21	0x3f719d2e	0.9438046
22	0x3e837ac3	0.25679597
23	0x3f311c2e	0.69183624
24	0xbf04d12a	-0.5188166
25	0x3f04540d	0.5169075
26	0xbed94f34	-0.4244324
27	0xbe5085ea	-0.20363584
28	0xbdab85df	-0.08375143
29	0xbf05d014	-0.5227063
30	0x3eb41644	0.35173237
31	0x3ee7fc54	0.453097
32	0xbdce4fda	-0.10073824
33	0x3ebf6fe9	0.37390068
34	0x3a918c69	0.0011104468
35	0xbdfb44a5	-0.12268952
36	0x3d4b4779	0.04962871
37	0x3d341053	0.04396088
38	0xbe612c3a	-0.21989527
39	0x3f684765	0.9073394
40	0x3d678547	0.056523588
41	0xbedb7302	-0.42861181
42	0xbe8fd644	-0.2809316
43	0x3da27040	0.07931566
44	0x3e87dec2	0.26537138
45	0x3b3a139c	0.0028393036
46	0x3c2a1467	0.010380841
47	0x3b864f56	0.004098813
48	0x3e1227af	0.1427295
49	0xbc3581b6	-0.011078289
50	0xbf00d3ab	-0.5032298
51	0xbec00b40	-0.37508583
52	0xbeb9edb9	-0.3631418
53	0x3ea110cc	0.31458127
54	0x3eb6f8c0	0.35736656
55	0x3d52cf28	0.05146709
56	0x3f04a3e8	0.518126
57	0xbeb0665e	-0.344531
58	0x3ef4174c	0.47674024
59	0xbeb127e7	-0.34600756
60	0xbf0d1b76	-0.5512003
61	0xbdb8cde9	-0.09023649
62	0xbf15c1ef	-0.58499044
63	0x3f6a4c36	0.9152254
64	0xbdf78ecc	-0.12087783
65	0x3ecb465e	0.39702123
66	0x3e935202	0.28773504
67	0xbdaf8d3f	-0.085718624
68	0x3e367dba	0.17821398
69	0xbf01a12e	-0.50636566
70	0x3e4faf41	0.20281698
71	0x3e685c7c	0.2269153
72	0xbec040dd	-0.37549487
73	0xbde228e1	-0.11042953
74	0xbf01e62c	-0.5074184
75	0x3cea80dd	0.0286259
76	0x3e745a80	0.23862648
77	0xbc0ac8ea	-0.008470753
78	0xbebccb35	-0.36873785
79	0xbebfc6cd	-0.3745636
80	0x3c27756f	0.010220869
81	0xbf32e690	-0.6988306
82	0x3e983457	0.29727432
83	0xbe9db871	-0.3080478
84	0xbecbdd70	-0.3981738
85	0x3e916301	0.28395846
86	0x3d5a3ecc	0.053282544
87	0xbe831372	-0.25600773
88	0x3c87f7cd	0.016597653
89	0x3f4c67d8	0.79845953
90	0x3fe1f745	1.7653586
91	0xbe79e588	-0.24403965
92	0xbe0f0405	-0.13966377
93	0xbf1a245a	-0.6021172
94	0xbeceefaf	-0.4041724
95	0xbe95c4f5	-0.2925183
96	0xbf0c6a0a	-0.548493
97	0x3f1186f1	0.5684653
98	0xbf127c30	-0.57220745
99	0xbf0a5bdc	-0.54046416
100	0x3eaa6b54	0.3328501
101	0xbfccc9d5	-1.5999094
102	0x3edf0235	0.4355637
103	0x3efe4c77	0.49667713
104	0x3f057029	0.5212427
105	0x3f1e1a21	0.6175862
106	0xbea52515	-0.32254854
107	0xbf740d4e	-0.953328
108	0xbe6c7a44	-0.23093516
109	0x3f777d81	0.9667588
110	0xbe7946da	-0.24343434
111	0xbee60270	-0.44923735
112	0x3f7da9a2	0.99086964
113	0xbedda229	-0.4328778
114	0xbcac106d	-0.021003926
115	0x3f25a41d	0.6470354
116	0x3f82ffb2	1.0234282
117	0xbcbacf79	-0.022804009
118	0xbff17e04	-1.8866582
119	0xbeea6ff3	-0.45788535
120	0x3cc12cf5	0.023581007
121	0x3f125831	0.5716582
122	0x3f88522b	1.0650076
123	0x3fa65f33	1.2997802
124	0x3e0e2b1e	0.13883635
125	0x3f94e190	1.1631336
126	0xbf7af08f	-0.98023313
127	0xbe91931b	-0.28432545
128	0x40058365	2.0861447
129	0x3e631c22	0.221787
130	0xbdd00d1f	-0.10158753
131	0xbd7a16c4	-0.061056867
132	0x3ec1c333	0.37844238
133	0xbf2cff9f	-0.67577547
134	0x3e4c5fd0	0.19958425
135	0x3f78d5a6	0.97201
136	0xbd880f11	-0.06643499
137	0xbf539537	-0.8264956
138	0xbf6de949	-0.9293409
139	0xbeab11e0	-0.33412075
140	0x3e131812	0.14364651
141	0x3ee7f8db	0.4530705
142	0xbebd2e7d	-0.3694953
143	0x3f54f08d	0.8317955
144	0x3d175951	0.036950413
145	0x3e84f7e5	0.2597038
146	0xbea43495	-0.32071367
147	0x3e5d0492	0.21583775
148	0x3dc9f3dc	0.098609656
149	0x3eb5203a	0.3537615
150	0xbec685f8	-0.38774085
151	0x3db03d91	0.08605493
152	0x3f2846bb	0.65732926
153	0xbdb44a53	-0.08803239
154	0x3eee7b38	0.46578383
155	0x3f10a778	0.5650554
156	0x3db1806e	0.08667074
157	0xbdedb295	-0.116063274
158	0xbedbaed3	-0.42906818
159	0x3fb9e277	1.4522237
160	0xbf549c6f	-0.830512
161	0xbe2cbfdb	-0.16870062
162	0xbf2fecea	-0.6872088
163	0x3f6edb14	0.93303037
164	0xbeff3e8a	-0.498524
165	0x3df42b1d	0.11922286
166	0x39b9aad5	0.0003541323
167	0x3c9bb8ec	0.019009076
168	0x3f2c4e46	0.67306936
169	0xbef08c0d	-0.4698185
170	0x3f815bcd	1.010614
171	0x3fa23977	1.2673787
172	0x3ea15336	0.31508797
173	0x3e9f75dd	0.3114461
174	0xbe1cf332	-0.15327147
175	0x3e2c1078	0.16803157
176	0x3ec0abed	0.3763117
177	0xbef8af8c	-0.48571432
178	0xbe73eb07	-0.23820125
179	0xbe65bb9c	-0.22434849
180	0xbf5434c2	-0.82893
181	0x3f10a6d4	0.5650456
182	0xbe37547b	-0.1790332
183	0xbf67ce0d	-0.90548784
184	0xbebf2aec	-0.37337434
185	0xbd92b796	-0.071639225
186	0xbe2b361c	-0.1671986
187	0xbe22bdfb	-0.15892784
188	0xbe6aea12	-0.22940853
189	0xbdf96aed	-0.121785976
190	0xbd809990	-0.0627929
191	0x3f6392a8	0.88895655
192	0xbf3437c3	-0.70397586
193	0x3dd2dc0e	0.10295878
194	0xbef79d26	-0.48362082
195	0xbe1b3968	-0.15158617
196	0x3ed8dac5	0.42354408
197	0x3f21d53d	0.63216
198	0xbec63dc6	-0.38719004
199	0x3e0f0096	0.13965067
200	0xbeb880f7	-0.36035892
201	0x3f03f183	0.5154039
202	0xbdb6b038	-0.0892033
203	0x3d92e296	0.07172124
204	0x3e4dad64	0.20085675
205	0x3f38da3d	0.72208005
206	0x3e150986	0.14554414
207	0x3fd4b42f	1.6617488
208	0xbe747c53	-0.23875551
209	0x3c9792bd	0.018502587
210	0x3fa36125	1.2764021
211	0xbeaf1799	-0.3419769
212	0x3ed3bfa7	0.41357157
213	0x3e76f67a	0.24117461
214	0xbe9b25d0	-0.30302286
215	0xbf281abc	-0.65665793
216	0x3f58b58f	0.84652036
217	0xbf2e52de	-0.68095195
218	0x3f26ba94	0.65128446
219	0xbfab132f	-1.3365229
220	0xbf185af5	-0.5951379
221	0x3d923963	0.07139852
222	0x3e16365b	0.14669172
223	0xbf7d8cbc	-0.9904287
224	0xbe56c2a2	-0.20972684
225	0x3f8faeee	1.1225259
226	0xbf66f131	-0.9021178
227	0xbf1ada94	-0.60489774
228	0x3e6b8d6e	0.2300317
229	0xbd9762e8	-0.07391912
230	0xbf08c5a6	-0.5342659
231	0x3ea4b07d	0.321659
232	0x3e64bdfe	0.22338101
233	0xbdd3702e	-0.10324131
234	0x3e8b2ceb	0.27182707
235	0xbec8f898	-0.39252162
236	0x3dfdaf64	0.12386969
237	0xbea11bc1	-0.31466487
238	0xbeee4fa0	-0.46545124
239	0x3ec4aa1d	0.38411036
240	0x400f925c	2.243308
241	0xbf80d6e4	-1.006558
242	0xbedbacdb	-0.42905316
243	0x3e4506a1	0.1924081
244	0xbd872fe4	-0.06600931
245	0xbf7c1d14	-0.9848187
246	0x3f43cadf	0.7648143
247	0xbea43881	-0.3207436
248	0x3f8f1a8d	1.1179978
249	0x3f4f3dc8	0.80953646
250	0xbf2549e1	-0.64565855
251	0x3e423a9b	0.18967669
252	0x3d7e4166	0.062074088
253	0xbcf92d28	-0.03041704
254	0x3e6f392c	0.23361653
255	0xbe025b7e	-0.12730214

encoder.LSTM_layers.1.bias_ih_l0 f4 [116]
0	0xbe8ac36f	-0.2710223
1	0xbd0d3b53	-0.034480404
2	0xbe0dadaa	-0.13835779
3	0xbea0d092	-0.31409127
4	0xbe147850	-0.1449902
5	0x3de8e937	0.11372607
6	0xbe6dc748	-0.23220551
7	0x3c9ff1d2	0.019524489
8	0xbe9030d0	-0.2816224
9	0xbe1b5cbe	-0.15172097
10	0xbe08c1f7	-0.13355242
11	0xbdfb69c1	-0.1227603
12	0x3e8835e6	0.2660362
13	0xbed5cd67	-0.41758272
14	0xbd858116	-0.06518762
15	0xbd241187	-0.040055778
16	0xbe3219fc	-0.17392725
17	0xbd8a7b8e	-0.067618474
18	0x3d99e6f7	0.07514756
19	0x3ef8b419	0.48574904
20	0xbe32e96c	-0.17471856
21	0x3c093371	0.008374081
22	0xbdd1dba4	-0.10246971
23	0xbe6735a0	-0.2257905
24	0xbd2fad83	-0.042890083
25	0xbeb6bb4c	-0.3568977
26	0xbe218a76	-0.15775475
27	0x3e96caf2	0.2945171
28	0xbea8e2e3	-0.329856
29	0xbda33da3	-0.07970741
30	0xbe3df66b	-0.18551032
31	0x3d510703	0.051032078
32	0x3f1a7eeb	0.6034991
33	0x3eb4984c	0.35272443
34	0x3dbfb5e1	0.093608625
35	0xbe9ecfce	-0.31017917
36	0xbdaca2ee	-0.08429514
37	0x3e86bbba	0.263151
38	0xbead453d	-0.33841887
39	0x3dc4a304	0.09601405
40	0x3ea84c06	0.328705
41	0x3e8ee35e	0.27907842
42	0x3f0da497	0.5532927
43	0x3f074050	0.5283251
44	0x3dc9ba09	0.098499365
45	0xbe939a8e	-0.28828853
46	0x3efc5d6c	0.49290025
47	0xbd6e8449	-0.058231626
48	0x3dbf6ada	0.09346552
49	0x3ea03317	0.31288978
50	0x3e41d774	0.18929845
51	0x3f14a39e	0.5806216
52	0xbc21ce41	-0.009875835
53	0xbe92aba7	-0.28646585
54	0x3f0c044b	0.5469405
55	0xbdf51a55	-0.11967913
56	0x3e0917ed	0.13388033
57	0x3eab7b1e	0.33492368
58	0xbdffa0c6	-0.12481837
59	0x3d3f11ba	0.046647765
60	0x3d8ec396	0.06970899
61	0x3e75cd68	0.24004138
62	0x3d6a3ede	0.05718886
63	0xbe9ac28e	-0.30226558
64	0xbd94dff5	-0.07269279
65	0xbd084a78	-0.033274144
66	0x3cf8bc1c	0.030363135
67	0xbdb0636b	-0.086127125
68	0xbea19eb1	-0.31566384
69	0x3e31fe19	0.17382087
70	0x3e1eec92	0.15519932
71	0xbc046d02	-0.00808263
72	0x3e823249	0.2542899
73	0xbd079b17	-0.03310689
74	0x3e317eb2	0.17333487
75	0x3d2417ad	0.04006164
76	0xbeac6ca2	-0.3367663
77	0xbe7fdf50	-0.2498753
78	0x3e0c3515	0.13692124
79	0x3e21b51a	0.15791741
80	0x3c8bf466	0.017084312
81	0x3d86663c	0.065624684
82	0x3e352b42	0.17692283
83	0xbd45ff31	-0.048339073
84	0x3d731c75	0.05935331
85	0xbe196741	-0.14980794
86	0xbd0eb878	-0.03484389
87	0xbe0def36	-0.13860783
88	0x3e5d49a6	0.21610126
89	0x3ea7154b	0.32633433
90	0x3eb0ff98	0.34570003
91	0x3e063be9	0.13108791
92	0x3dddde40	0.108334064
93	0x3db3b162	0.087740675
94	0x3ebbdfb6	0.36694115
95	0xbd95d9f6	-0.073169634
96	0xbe14d0de	-0.14532802
97	0x3daf498e	0.08558951
98	0xbe03594a	-0.1282703
99	0xbda14633	-0.078747176
100	0x3e886bca	0.26644737
101	0xbe2f97da	-0.1714777
102	0xbe536248	-0.2064296
103	0xbe06c00c	-0.13159198
104	0xbb92c8fd	-0.004479526
105	0x3eb27b9f	0.3485994
106	0xbe984d56	-0.29746503
107	0x3d6736f2	0.056448884
108	0xbe179fe8	-0.14807093
109	0x3e18b2a9	0.14911903
110	0xbbf195c8	-0.0073725916
111	0xbe0ca71e	-0.13735625
112	0x3ec3a6a8	0.38213086
113	0x3e262e4f	0.16228603
114	0x3e7e2bbd	0.24821372
115	0xbda889c9	-0.082294054

encoder.LSTM_layers.1.bias_hh_l0 f4 [116]
0	0xbe6ba4f8	-0.2301215
1	0xbcee6124	-0.029099055
2	0xbd7acc18	-0.061229795
3	0xbd8798c1	-0.06620932
4	0x3dbeb226	0.09311323
5	0xbe06fcde	-0.13182399
6	0xbe580d33	-0.21098785
7	0x3e44ebeb	0.1923062
8	0xbe195b2d	-0.14976187
9	0xbea14701	-0.31499484
10	0xbec9f4db	-0.39444622
11	0x3e02b0ac	0.12762707
12	0x3dcf5e99	0.10125465
13	0xbe17283c	-0.14761442
14	0x3e32515f	0.17413853
15	0xbd9b26bf	-0.075757496
16	0xbb28e168	-0.0025769118
17	0x3d2efcc2	0.042721517
18	0x3e1074a4	0.14106995
19	0x3efb3987	0.49067327
20	0x3dc82b10	0.097738385
21	0xbcdbf9e6	-0.02685256
22	0xbd8be4b4	-0.06830731
23	0xbe237b5d	-0.15965028
24	0xbe8f5f2b	-0.28002295
25	0xbf18ecdf	-0.59736437
26	0xbe9124f6	-0.2834851
27	0x3e0a3d46	0.13499936
28	0xbe5a3008	-0.21307385
29	0xbe846f4e	-0.2586617
30	0xbe371769	-0.17880024
31	0xbd046741	-0.032325033
32	0x3f2cc174	0.67482686
33	0x3edebafc	0.43502033
34	0xbb53befb	-0.0032309878
35	0xbe5bf321	-0.21479465
36	0x3bdb9804	0.0067014713
37	0x3ef8ab36	0.48568124
38	0xbdccc368	-0.09998208
39	0x3de51c18	0.11186999
40	0x3eeb9673	0.4601322
41	0x3e3a1cce	0.1817505
42	0x3f06cddb	0.5265786
43	0x3eb153af	0.34634158
44	0xbd124e10	-0.035718977
45	0xbd0ef03d	-0.034897078
46	0x3f006693	0.50156516
47	0xbd4ef33f	-0.050524946
48	0x3e3c9321	0.184155
49	0x3dd12548	0.10212189
50	0x3dfeb18e	0.124362096
51	0x3ed8946d	0.4230074
52	0x3e745341	0.23859884
53	0xbcfc2448	-0.030779019
54	0x3ec3ee0c	0.38267553
55	0x3d87a2ff	0.06622886
56	0xbe435dcb	-0.19078748
57	0x3d5981fa	0.05310247
58	0xbe0edf80	-0.13952446
59	0x3ddaeaf0	0.10689342
60	0x3e53317e	0.20624349
61	0xbb517439	-0.0031960143
62	0xbdb183a1	-0.08667684
63	0xbec96d8f	-0.393414
64	0xbbc2d7f5	-0.0059461542
65	0x3c9e9c96	0.019361775
66	0x3aaafcc1	0.0013045297
67	0xbe4fa884	-0.20279127
68	0xbea9fc2a	-0.33200198
69	0x3dd98ae9	0.10622198
70	0x3e0c80a7	0.13720952
71	0xbe4e4396	-0.2014297
72	0x3f0ee6fd	0.5582121
73	0xbce64002	-0.028106693
74	0xbdf7dfa9	-0.12103207
75	0x3e4e9c41	0.20176794
76	0xbdc6deff	-0.09710502
77	0x3d06b9d6	0.03289207
78	0xbd148636	-0.036260806
79	0xbcfc7610	-0.030818015
80	0xbd21dfcc	-0.03952007
81	0x3ea0b4b3	0.31387863
82	0xbdab43ef	-0.08362567
83	0xbb49cc01	-0.0030791762
84	0x3eb0007d	0.34375373
85	0xbe4407df	-0.19143628
86	0x3e16efa6	0.14739856
87	0xbd9d9b03	-0.07695582
88	0x3d6ce2fb	0.057833653
89	0x3ed502ee	0.41603798
90	0x3e6c8336	0.23096928
91	0x3edb3a57	0.42817947
92	0xbe1f3ff9	-0.15551747
93	0x3da3786d	0.07981954
94	0x3f245572	0.6419288
95	0xbbcaa1cb	-0.006183838
96	0x3daddc7e	0.08489321
97	0x3c09efc3	0.00841898
98	0x3de6c6bb	0.112683736
99	0xbe6e7b80	-0.23289299
100	0xbc361ee7	-0.011115766
101	0xbc2d0460	-0.010560125
102	0xbd83d7ea	-0.06437667
103	0xbd687298	-0.05674991
104	0xbdaf16db	-0.08549281
105	0x3e018ed4	0.12652141
106	0x3d927e3b	0.07152983
107	0xbdc6ad37	-0.09701007
108	0xbdf636db	-0.120221816
109	0x3dffcf0b	0.12490662
110	0xbe07b15e	-0.13251254
111	0xba410f3c	-0.0007364636
112	0x3f0052c2	0.5012628
113	0x3e36c294	0.17847663
114	0x3e5cc416	0.21559176
115	0xbeb2f6ae	-0.34953827

encoder.LSTM_layers.2.weight_ih_l0 f4 [40, 29]
0	0x3da012d2	0.0781609
1	0xbe6f0130	-0.23340297
2	0xbf2274ec	-0.6345966
3	0xbf2fb921	-0.6864186
4	0xbe99b517	-0.30020973
5	0x3efe3969	0.49653175
6	0x3e9cb161	0.3060408
7	0x3f18b685	0.596535
8	0x3f71becf	0.94431776
9	0x3d67ef88	0.05662492
10	0x3dc8a045	0.09796194
11	0xbf5a83af	-0.85357183
12	0x3e14a9ac	0.1451785
13	0x3db0488e	0.08607589
14	0xbecfc1f5	-0.40577665
15	0xbf013a79	-0.5047985
16	0xbdc4bbf9	-0.096061654
17	0xbd496e0e	-0.049177222
18	0x3f1383c1	0.57622916
19	0x3e289f2c	0.16466969
20	0xbef0f2be	-0.47060198
21	0x3ed5525a	0.41664392
22	0x3e9f7f04	0.31151593
23	0xbe186b07	-0.14884578
24	0xbf7c6662	-0.98593724
25	0xbe96c1bb	-0.2944468
26	0x3d0dc76f	0.034614023
27	0x3e787ca4	0.24266297
28	0x3ed21a00	0.4103546
29	0xbdaafba1	-0.08348776
30	0x3bdb9fd4	0.0067024026
31	0x3f0431b7	0.5163836
32	0xbdce77f9	-0.10081477
33	0xbe7aed3a	-0.24504557
34	0x3e25f0cd	0.1620514
35	0xbc82532e	-0.015908804
36	0x3eb55f8a	0.35424453
37	0x3e8e4aab	0.27791342
38	0x3d570bc7	0.052501466
39	0x3e18daba	0.14927188
40	0xbf03e7ec	-0.5152576
41	0x3e7d7a34	0.24753648
42	0x3e7ae99a	0.24503174
43	0xbe82cff9	-0.25549296
44	0x3e89a008	0.26879907
45	0xbe830bcf	-0.25594947
46	0x3d21185b	0.039329868
47	0x3e98d740	0.29851723
48	0x3e6e0e34	0.23247606
49	0xbf086a29	-0.5328699
50	0xbcef73eb	-0.029230079
51	0x3eab786c	0.33490312
52	0xbed25300	-0.4107895
53	0xbf778673	-0.9668953
54	0xbd890c85	-0.06691841
55	0xbf29bbf9	-0.6630245
56	0x3f1c359a	0.6101929
57	0x3f26bd25	0.6513236
58	0xbea4644a	-0.32107764
59	0xbe127a43	-0.14304452
60	0x3f061b61	0.52385527
61	0xbe6889ff	-0.22708891
62	0x3c895202	0.016762737
63	0xbe9c7ed3	-0.3056551
64	0x3ea94159	0.3305767
65	0x3e817edc	0.252921
66	0x3f0c121d	0.5471514
67	0xbde42d68	-0.11141473
68	0xbecfb32f	-0.40566394
69	0x3c9fb27e	0.019494291
70	0xbee31d09	-0.4435809
71	0xbeea0989	-0.457104
72	0xbedf9c8e	-0.4367413
73	0xbeb0bc61	-0.34518722
74	0x3dc0706d	0.093964435
75	0xbd8df1fd	-0.06930921
76	0x3dfa504e	0.12222348
77	0xbe993edf	-0.2993078
78	0xbf5de17c	-0.86672187
79	0xbed1c5d8	-0.40971255
80	0x3ea08c0f	0.31356856
81	0xbc85baa5	-0.01632435
82	0x3d830faa	0.06399472
83	0xbe07faf5	-0.13279326
84	0xbe571aaa	-0.21006265
85	0x3e26b161	0.16278602
86	0x3dbd9423	0.092567705
87	0xbe72f99e	-0.23728034
88	0x3d7f7de8	0.062375933
89	0x3ca439ab	0.02004703
90	0x3dfb72b4	0.12277737
91	0xbf0c1846	-0.5472454
92	0x3f25d66d	0.6478031
93	0x3c790c1c	0.015200641
94	0xbc7685fe	-0.015046595
95	0x3ef07a6d	0.46968403
96	0x3f41bde1	0.7568036
97	0xbef28164	-0.47364342
98	0xbf0d0935	-0.55092174
99	0x3dcb0f17	0.099149875
100	0x3da62437	0.08112376
101	0xbeaca98f	-0.33723113
102	0x3ef02c3a	0.46908742
103	0x3e722a3d	0.23648925
104	0xbebb889a	-0.36627656
105	0x3f22e11e	0.6362475
106	0x3e2b716e	0.16742489
107	0xbea6c281	-0.3257027
108	0x3f0cb53b	0.54964036
109	0x3d471b36	0.048609935
110	0xbda269c5	-0.0793033
111	0xbe6858dd	-0.22690149
112	0xbee04e8b	-0.43809924
113	0xbdf7878d	-0.12086401
114	0x3e9dae6e	0.30797142
115	0xbe530ac2	-0.20609573
116	0xbdf84310	-0.12122166
117	0xbd96eab1	-0.073689826
118	0xbe51f91f	-0.20505188
119	0xbe37eb0f	-0.17960761
120	0xbed47fc4	-0.41503727
121	0x3da349c3	0.07973053
122	0x3f08d6eb	0.5345294
123	0xbc846603	-0.016161924
124	0x3efdb788	0.49554086
125	0xbe211f53	-0.15734605
126	0xbe9191f0	-0.28431654
127	0xbf38762a	-0.72055304
128	0xbe4bc728	-0.19900191
129	0xbd5def37	-0.05418321
130	0xbee0ad77	-0.43882343
131	0x3ed41d83	0.41428766
132	0x3ea361cf	0.3191056
133	0xbf5fc713	-0.8741314
134	0x3e95a43b	0.2922686
135	0xbddfdfa6	-0.109313294
136	0x3d038f73	0.032119226
137	0xbdbd3d18	-0.09240168
138	0x3f024bdb	0.50896996
139	0xbdaee25f	-0.085392706
140	0xbee17e89	-0.4404185
141	0xbf101acd	-0.56290895
142	0xbef450c0	-0.47717857
143	0x3e88c44c	0.26712263
144	0x3e8667ae	0.26250976
145	0x3f275f6e	0.6537999
146	0xbe609e0b	-0.21935289
147	0x3d573d31	0.05254859
148	0xbe723dc6	-0.23656377
149	0x3e5a3e87	0.21312915
150	0x3d06cdef	0.032911237
151	0x3d9ac64d	0.07557354
152	0x3dfca7f5	0.12336723
153	0x3ede8d99	0.43467405
154	0xbcd95479	-0.026529538
155	0xbf724431	-0.946353
156	0xbe72f58c	-0.23726481
157	0x3dac05ff	0.08399581
158	0x3e9f5779	0.31121424
159	0xbe82e13d	-0.25562468
160	0xbe0e7ea8	-0.13915503
161	0x3e8186d2	0.25298172
162	0xbf0efec8	-0.55857515
163	0x3f0f735a	0.5603539
164	0xbf07ac99	-0.5299774
165	0xbf92be41	-1.1464311
166	0x3e30bb45	0.17258938
167	0x3e484963	0.19559245
168	0x3f35c6b2	0.7100631
169	0xbd8c515a	-0.06851454
170	0xbe89692f	-0.2683806
171	0xbec9e27d	-0.3943061
172	0xbdbfc244	-0.09363225
173	0xbed5fc36	-0.41793984
174	0x3e772e81	0.24138834
175	0x3e458fec	0.19293183
176	0x3ebbdd34	0.36692202
177	0xbe93e5b8	-0.288862
178	0xbe6192e8	-0.22028697
179	0xbe67f5c6	-0.22652349
180	0xbe08bc2e	-0.13353035
181	0x3e81bc42	0.25338942
182	0x3e95c17e	0.29249185
183	0xbda390b7	-0.079865865
184	0xbe1ffd36	-0.15623936
185	0xbf660dcb	-0.89864796
186	0xbe299ef4	-0.16564542
187	0x3e81bab4	0.25337756
188	0xbe4dd4db	-0.20100729
189	0x3d4d8e9d	0.050184835
190	0x3d68edc1	0.056867365
191	0xbe2912ce	-0.1651108
192	0x3ec50478	0.38479972
193	0x3eeb72fa	0.45986158
194	0xbedbae15	-0.42906252
195	0x3efd6a67	0.4949524
196	0x3f16e074	0.5893624
197	0xbe025cd9	-0.12730731
198	0xbecb0cfb	-0.3965834
199	0xbf138791	-0.5762873
200	0xbebe0a2d	-0.37117139
201	0x3edd0810	0.43170214
202	0xbd43fdee	-0.047849588
203	0x3c554dfa	0.013019079
204	0x3e110655	0.14162572
205	0x3ecc0e72	0.3985477
206	0xbd8d9711	-0.06913579
207	0xbd2f48db	-0.04279409
208	0x3e49c187	0.19702731
209	0xbc1c7cb1	-0.009551213
210	0x3e35cbe3	0.17753558
211	0xbc9f6fca	-0.019462485
212	0xbe2f50c5	-0.17120655
213	0xbee30487	-0.44339392
214	0xbf173359	-0.59062725
215	0xbc594410	-0.013260856
216	0x3eaf9805	0.3429567
217	0xbf1fc257	-0.62405914
218	0xbcc58c30	-0.024114698
219	0x3ddb450e	0.107065305
220	0xbded0c2f	-0.115745895
221	0x3ea01479	0.3126562
222	0xbe4e9b7f	-0.20176505
223	0xbef6e8a8	-0.48224378
224	0xbe046319	-0.12928428
225	0x3ec64ade	0.38728994
226	0x3d8d2e8a	0.06893642
227	0x3e713cb4	0.23558313
228	0xbe07b175	-0.13251288
229	0xbe166b7d	-0.14689441
230	0x39bb104f	0.0003567957
231	0x3ec31808	0.38104272
232	0x3e80275d	0.25030032
233	0x3d1ec2b5	0.038759906
234	0xbd1003f4	-0.03516002
235	0x3de6d7ca	0.11271627
236	0xbd9b0a3b	-0.07570311
237	0xbe59e573	-0.21278934
238	0xbe0a3554	-0.13496906
239	0x3e56d409	0.20979322
240	0x3d8b2750	0.06794608
241	0x3e7c243d	0.24623199
242	0xbe8c6701	-0.27422336
243	0xbf051529	-0.5198541
244	0x388dfa61	6.7700406e-05
245	0xbdcddace	-0.10051499
246	0xbef8b35c	-0.4857434
247	0x3e8d1447	0.27554533
248	0x3efea5c0	0.49735832
249	0x3d8d192d	0.068895675
250	0x3ee08369	0.43850258
251	0xbeb84280	-0.35988235
252	0xbf373dd3	-0.7157871
253	0xbe44f32e	-0.1923339
254	0x3d7d597b	0.061852913
255	0xbe5ac28d	-0.21363278
